data.pth (torch, 6570 bytes, 6 tensors)

l1.weight f4 [8, 82]
0	0x3e60752b	0.21919696
1	0x3e37be14	0.17943603
2	0x3e2558e6	0.16147193
3	0x3e7b9d0e	0.2457163
4	0x3e49bb78	0.1970042
5	0x3e5d7c09	0.21629347
6	0x3d870373	0.06592455
7	0x3de8866f	0.11353766
8	0x3e8266db	0.25469097
9	0x3e1e6973	0.15469913
10	0x3e89ae28	0.26890683
11	0x3e675557	0.22591148
12	0x3df3450d	0.11878405
13	0x3e29b24e	0.16571924
14	0x3d51e492	0.051243372
15	0x3e15d68c	0.14632624
16	0x3db50ef9	0.088407464
17	0x3f381ed5	0.71922046
18	0x3e922860	0.2854643
19	0xbd23f632	-0.040029712
20	0x3e0cec74	0.13762075
21	0x3e4f26b3	0.20229606
22	0x3e15d715	0.14632829
23	0xbdff98b1	-0.124802954
24	0xbe9d3a12	-0.30708367
25	0x3dbdcf9f	0.09268116
26	0x3e892fd9	0.26794317
27	0xbe9617a2	-0.29314905
28	0xbd92ed85	-0.071742095
29	0x3e15746e	0.14595196
30	0x3e914954	0.28376257
31	0xbe25d609	-0.16194929
32	0x3cb6442b	0.022249302
33	0x3e73bb06	0.23801813
34	0x3db89ad2	0.09013905
35	0x3e42529b	0.18976824
36	0x3dc44564	0.09583548
37	0x3e41d89c	0.18930286
38	0xbe06402e	-0.1311042
39	0xbe960301	-0.29299167
40	0x3d86b18b	0.065768324
41	0xbcf2adb0	-0.029623836
42	0xbe960273	-0.29298744
43	0xbe960b1b	-0.29305348
44	0xbe960283	-0.2929879
45	0xbe91e6ff	-0.2849655
46	0x3ec430bb	0.38318428
47	0x3e96df56	0.29467267
48	0xbcd0282f	-0.025409786
49	0x3e888817	0.26666328
50	0xbe83bf4e	-0.2573189
51	0x3e4d504c	0.20050162
52	0x3e5f78a3	0.21823363
53	0x3deecf9d	0.11660693
54	0x3e55245f	0.20814656
55	0x3e8b431c	0.27199638
56	0x3e093afb	0.13401406
57	0x3e1e67c6	0.15469274
58	0x3dbc9d19	0.092096515
59	0xbd9506b4	-0.07276669
60	0x3e92f149	0.2869971
61	0x3e95fa58	0.2929256
62	0x3eadf1dd	0.3397359
63	0x3e01d1fe	0.12677762
64	0x3e6b7386	0.22993287
65	0x3eb4c0ca	0.35303336
66	0xbe8ecfc5	-0.2789289
67	0x3e2e1ee3	0.1700397
68	0xbe960949	-0.2930396
69	0x3e6c2dc3	0.23064332
70	0x3e3f9936	0.18710789
71	0xbe6297bc	-0.22128195
72	0x3f41e5bd	0.7574118
73	0xbe123a4f	-0.14280055
74	0x3ed24eb7	0.4107568
75	0x3daf6700	0.085645676
76	0x3ea8f7c4	0.3300153
77	0x3e436e94	0.19085151
78	0x3e701b08	0.23447812
79	0x3e7b313b	0.24530499
80	0x3e33f29f	0.17573021
81	0x3e9917db	0.29901013
82	0x3e818d4e	0.2530312
83	0x3e2f700f	0.1713259
84	0x3e8289bc	0.25495708
85	0x3e421534	0.18953401
86	0x3e6dfd8d	0.23241253
87	0x3e25772a	0.16158739
88	0x3e54585a	0.20736828
89	0x3e193191	0.14960314
90	0x3e850e0d	0.25987282
91	0x3e387053	0.18011598
92	0x3dad7797	0.084700756
93	0x3e94658c	0.28983724
94	0x3e8e92ef	0.27846476
95	0x3e6274a3	0.22114806
96	0x3e34583b	0.17611782
97	0x3e27a7d5	0.16372617
98	0x3e893420	0.2679758
99	0xbe8a82a7	-0.27052805
100	0x3ed288b2	0.41119915
101	0x3ef0a230	0.4699874
102	0x3e257722	0.16158727
103	0x3e003a60	0.12522268
104	0x3e2ff185	0.17181976
105	0xbdd2544f	-0.10269987
106	0xbe0a4d19	-0.13505973
107	0x3ded70b3	0.11593761
108	0x3dc845dd	0.0977895
109	0x3f2f485c	0.68469787
110	0x3f06826f	0.52542776
111	0x3dc47345	0.095922984
112	0x3d4ee22c	0.050508663
113	0xbc8e8ea7	-0.017402006
114	0x3e6b454f	0.22975658
115	0x3e97d309	0.29653195
116	0x3e5860b6	0.21130642
117	0x3ea53d22	0.32273203
118	0x3e5a951b	0.21345942
119	0x3e567935	0.20944674
120	0xbeb3cb6a	-0.3511613
121	0x3f27235a	0.6528832
122	0x3dcaea38	0.09907955
123	0x3ef4b3d4	0.47793448
124	0xbec11767	-0.37713167
125	0xbec10eba	-0.37706548
126	0xbec11591	-0.37711766
127	0xbe7a5c0e	-0.24449179
128	0x3ecb0888	0.39654946
129	0x3e98d408	0.29849267
130	0xbd8c04d9	-0.06836862
131	0x3ea37476	0.3192479
132	0x3f1c359e	0.61019313
133	0x3e1eec01	0.15519716
134	0x3e5da7c2	0.21646026
135	0x3e84f422	0.2596751
136	0x3e235119	0.15948905
137	0x3e7f2586	0.24916658
138	0x3e6baa0e	0.2301409
139	0x3eaf6977	0.3426015
140	0x3df7562c	0.12076983
141	0x3ead1cf0	0.3381114
142	0x3d83899b	0.064227305
143	0x3e7f0f31	0.24908139
144	0x3e5301cb	0.20606153
145	0x3d190690	0.037359774
146	0x3e7fb066	0.24969634
147	0x3eb74c5d	0.35800448
148	0x3ed01fa0	0.40649128
149	0x3e6688f2	0.22513178
150	0xbec1195c	-0.3771466
151	0x3dd9564e	0.106121644
152	0x3da4f4f4	0.080545336
153	0x3f0b8dda	0.54513323
154	0xbec111ed	-0.3770899
155	0xbe52fb74	-0.20603734
156	0x3ed1e5ff	0.40995786
157	0x3e76b7e1	0.24093582
158	0x3ebc4bdc	0.36776626
159	0x3e3cbc8f	0.18431304
160	0x3e45c880	0.19314766
161	0x3db9064b	0.090344034
162	0x3e83abab	0.2571691
163	0x3c906719	0.017627286
164	0x3ec2d6a1	0.38054374
165	0x3e916d79	0.28403834
166	0x3eb73ccd	0.35788575
167	0x3e7e7486	0.24849138
168	0x3e812da0	0.25230122
169	0x3e82fa06	0.25581378
170	0x3e8a17f1	0.2697139
171	0x3e50980a	0.20370498
172	0x3e84ca93	0.25935802
173	0x3eaa1959	0.33222464
174	0x3e0aef72	0.13567904
175	0x3ea77e2a	0.32713443
176	0x3e4d2dbd	0.20036979
177	0x3e3f84e2	0.18703035
178	0x3e9d332a	0.30703098
179	0x3d2cc17d	0.042176712
180	0x3e9f34fd	0.31095114
181	0xbe37dafa	-0.17954627
182	0x3efe6bc7	0.49691603
183	0x3e5661c5	0.20935734
184	0x3e03bf22	0.1286588
185	0x3dea0492	0.11426653
186	0x3ec6786c	0.3876375
187	0xbceb78ed	-0.028744185
188	0xbe1a12c3	-0.1504622
189	0x3e4185e6	0.18898734
190	0x3eb5088c	0.35358083
191	0x3ed0a065	0.4074737
192	0x3e8e2df0	0.27769423
193	0x3e823a85	0.25435272
194	0x3e05e9ef	0.1307752
195	0xbda52613	-0.08063903
196	0x3e6c8caa	0.23100534
197	0x3ea39900	0.31952667
198	0x3e2b1fb1	0.16711308
199	0x3eedd3f2	0.46450764
200	0x3deaeafa	0.114705995
201	0x3e8bfc0b	0.2734073
202	0xbe5518bb	-0.20810215
203	0x3f1726c1	0.5904351
204	0x3ecb9184	0.39759457
205	0x3ea4b91b	0.32172474
206	0xbe93dc6a	-0.288791
207	0xbe93dbe7	-0.2887871
208	0xbe93d985	-0.28876892
209	0xbe13e03e	-0.1444101
210	0x3ef35d7b	0.47532257
211	0x3eac367a	0.33635312
212	0xbe20f192	-0.15717152
213	0x3ec848ce	0.39118046
214	0x3f4135f0	0.7547293
215	0x3e83a396	0.25710744
216	0x3e4e6394	0.20155174
217	0x3e71dc3b	0.23619168
218	0x3e2f1ad9	0.17100085
219	0x3ebc042f	0.36721942
220	0x3e9e8539	0.30961016
221	0x3ef558ab	0.4791921
222	0x3e849489	0.25894573
223	0x3ead0ba3	0.3379794
224	0x3e79cff9	0.24395742
225	0x3ec01df0	0.3752284
226	0x3d559704	0.052145973
227	0x3e6ef60a	0.23336044
228	0x3eee94be	0.46597856
229	0x3e9b5a51	0.30342343
230	0x3e92e026	0.28686637
231	0x3eb52351	0.35378507
232	0xbe93da81	-0.28877643
233	0x3e4231f1	0.18964364
234	0x3e0d9ba5	0.13828905
235	0x3ea894f0	0.3292613
236	0x3d3ea015	0.046539385
237	0xbdd2ac6a	-0.102867916
238	0x3f172374	0.5903847
239	0x3e14ded6	0.1453813
240	0x3f05afac	0.5222118
241	0x3e404047	0.1877452
242	0x3e831c91	0.25607732
243	0x3e982168	0.29712987
244	0x3e0b64bc	0.13612646
245	0x3bc938d5	0.006140808
246	0x3d89354a	0.06699617
247	0x3e69134a	0.22761264
248	0x3e22102c	0.15826482
249	0x3da4844d	0.08033047
250	0x3e5e81dd	0.21729226
251	0x3d8b62f2	0.06805982
252	0x3dc54169	0.096316166
253	0x3d6e206e	0.058136396
254	0x3e0b0b1b	0.13578455
255	0x3d9b2fe3	0.07577493

l1.bias f4 [8]
0	0x3e96045a	0.29300195
1	0x3ec11351	0.3771005
2	0x3e93dd65	0.28879848
3	0x3f3dea83	0.7418596
4	0x3f6b625b	0.91946954
5	0x3f2f9bca	0.6859709
6	0x3e886c75	0.26645246
7	0x3e281511	0.16414286

l2.weight f4 [8, 8]
0	0x3f51a5c8	0.8189359
1	0xbf100cb4	-0.56269383
2	0xbf05746f	-0.5213079
3	0x3f3a000c	0.7265632
4	0x3f2803d2	0.6563083
5	0xbe254761	-0.1614051
6	0x3f828992	1.0198233
7	0x3e6f8850	0.23391843
8	0xbf29d2f9	-0.66337544
9	0xbf2d8a1b	-0.6778886
10	0xbf8bd542	-1.0924456
11	0x3f8a608b	1.0810713
12	0x3f510181	0.8164292
13	0x3ea7dbc0	0.32784843
14	0xbf1a57cb	-0.6029021
15	0xbf466f2a	-0.7751337
16	0x3f19da71	0.6009894
17	0x3f0b89a1	0.5450688
18	0x3e796dd7	0.24358307
19	0x3f2b7e7c	0.66989875
20	0xbeb25b98	-0.34835505
21	0xbe87ef72	-0.2654987
22	0x3f2eff7c	0.6835859
23	0x3ec61980	0.3869133
24	0xbe2499ca	-0.16074291
25	0x3f868247	1.0508507
26	0x3f793c1b	0.9735734
27	0xbe9177c9	-0.284117
28	0xbef07577	-0.4696462
29	0x3f3d005c	0.73828673
30	0xbebae41e	-0.36502165
31	0x3f0645c4	0.52450204
32	0x3f0e5bef	0.5560903
33	0xbf166a13	-0.58755606
34	0xbef17493	-0.47159252
35	0x3b9dcc67	0.0048156264
36	0x3f92d3e3	1.1470913
37	0x3de9d3b4	0.11417332
38	0x3f3942ce	0.7236756
39	0x3e941d79	0.28928736
40	0xbf4cef58	-0.8005271
41	0x3f2d5c8b	0.67719334
42	0x3e9db902	0.30805212
43	0x3f243152	0.64137757
44	0x3f1e63e0	0.6187115
45	0x3f978657	1.1837872
46	0xbf54183b	-0.8284947
47	0xbf37a184	-0.7173083
48	0x3f55980b	0.83435124
49	0x3f24e37a	0.644096
50	0x3f5b7f3b	0.85741013
51	0x3f092017	0.5356459
52	0x3da6a7f9	0.08137507
53	0xbf530d9a	-0.8244263
54	0x3f08509e	0.5324801
55	0x3ec86521	0.39139655
56	0xbe987327	-0.29775354
57	0xbea49c06	-0.32150286
58	0x3d23554d	0.03987627
59	0xbeb36b94	-0.35043013
60	0x3e84d53c	0.25943935
61	0xbc624ed9	-0.013812744
62	0xbe8de209	-0.27711514
63	0x3e2ba14b	0.16760747

l2.bias f4 [8]
0	0x3f0dedf0	0.5544119
1	0x3ec84569	0.39115456
2	0xbdf3cc90	-0.119042516
3	0x3e858cf3	0.26084098
4	0x3f033946	0.5125927
5	0x3f2f5531	0.68489367
6	0x3d362605	0.044469852
7	0xbe484be7	-0.19560204

l3.weight f4 [4, 8]
0	0xbf7e99c4	-0.9945338
1	0xbf8406a1	-1.0314523
2	0xbe690eb6	-0.22759518
3	0x3f9b3c24	1.2127728
4	0xbe961acf	-0.29317328
5	0x3f0e2f53	0.5554096
6	0xbecc803f	-0.39941594
7	0x3e8575aa	0.26066333
8	0x3e19cdbd	0.15019889
9	0x3f8dc834	1.1076722
10	0xbf69ac4d	-0.91278535
11	0xbf89873d	-1.0744396
12	0x3e54ddb0	0.20787692
13	0x3e3d0db9	0.18462266
14	0xbf97cb9a	-1.1859009
15	0x3c08b530	0.00834398
16	0xbef725da	-0.48271066
17	0xbf30babc	-0.69034934
18	0x3f1e3891	0.61805063
19	0x3e8e3277	0.27772877
20	0xbf450171	-0.76955324
21	0xbf810af8	-1.0081472
22	0x3ebba106	0.3664629
23	0x3e0dae83	0.13836102
24	0x3ebc47fd	0.36773673
25	0xbf807b50	-1.0037632
26	0x3d214ac4	0.039377943
27	0xbf62e032	-0.88623345
28	0x3f4a16dd	0.78941137
29	0xbf7973a7	-0.97442096
30	0x3d206eec	0.039168283
31	0x3d9f5dad	0.07781539

l3.bias f4 [4]
0	0x3e920177	0.28516743
1	0xbe825d7e	-0.25461954
2	0xbe0338aa	-0.12814584
3	0x3e911d1d	0.28342524
